CroSloEngual_BERT/adapters/case_adapter/pytorch_model_head.bin (torch_old, 22014 bytes, 2 tensors)

classifier.weight f4 [7, 768]
00000000: 14ea 473d 30b3 a03c b24e 14bd 0535 643d
00000010: 08ba fe3c 88cb 0fbc 3d46 c93b 6549 76bc
00000020: 9159 6e3b fb38 87bc c4f5 fb3c 4a42 58bc
00000030: c2a4 8f3c 543b fabc c403 a7bc eb64 3dbb
00000040: 6ea8 b93c 6d69 b43a 18b1 3fbc 51e3 65bc
00000050: cd60 5f3c 3b8d dd3c 6a77 c33c 7b49 713b
00000060: 1e1f 853c 7a12 66bc d515 2cbd 1558 e43c
00000070: 0c09 1c3d 4cd0 8b3b 9c46 dc3b 3c02 c83b
00000080: 54d8 cbbc 4adf febc b067 603d cf7c 32bc
00000090: a101 52bc 4e17 c03c c9dd 083c f66a a33b
000000a0: b1fb 243d 430f 033b f2aa dfbb 62d7 89bc
000000b0: 4901 07ba a339 4cba 26b8 2fbc e8de d3bc
000000c0: 3404 43bc 89b2 e63b 57da 103b 319d 1abc
000000d0: e95b d23b 3186 c7bb 2cba 3c3c ea67 f9bb
000000e0: a5d4 50bc 777a 673c c142 813d d221 fe3c
000000f0: e891 4ebc e801 093d 99c8 38bd 84e0 d9ba
00000100: dda3 b53c deae 6e3c 6fad 41bd c8e5 62bc
00000110: 7f1f 793d 4592 863c 2fbe ad3c cf06 abba
00000120: a2e3 593c 8aea 273c e74a 083d b081 11bd
00000130: a45a b33c 8a18 f93c 6edc 34bc ed45 513d
00000140: 404d ccbc 5716 c6bb 2363 273c 024a 87b9
00000150: 2443 4cbd 8db7 73bc 88cd 8c3c 258c e13c
00000160: fab8 583c 7062 94bc 8613 b6bc a869 33bc
00000170: 44d8 cd3c e0c6 1abc 85ec 6cbc ea34 22bc
00000180: 2a58 0dbc a591 033d 4b04 4f3b 3f50 3c3d
00000190: 9a9b 15bd 861b 9b3b e678 fe3c be93 883c
000001a0: 91e7 d6ba 7872 24bd 0775 01bd bc53 d4bb
000001b0: 3f54 75bc 6d86 353d 0684 89bd 5b56 113d
000001c0: 23a0 ecbc 781b 8bbc 17be a9bc 011a dbbb
000001d0: 6733 93b8 a991 403d dccb 06bc 8535 3ebb
000001e0: 198b bcba 68f3 2dbd 962a 4dbc 2a73 e63c
000001f0: d20e a33c 6849 4abd 36c9 643a eb0f 813d
00000200: c3b9 07bd a13f 67bd 706e 983d 1f6f c7bb
00000210: a223 1bbd 7902 99bc 7628 943c 2079 8a3c
00000220: 03ab 4abd d6c3 c1bc a82f 7abd 5e9c 98ba
00000230: 5acc b7bb 0ff6 7bbc 034e e0bc c3a6 a1bb
00000240: 5790 c73c 32ad 30bd 3ac6 fbbc eff2 2bbc
00000250: 0e6e 0f3c 4abf a03c b3c2 a9bc 070f 3e3c
00000260: 1e14 76bc abe7 78bd 9486 b6bc 723e 633a
00000270: 2fc5 bc3c 001a e0bc 3c10 c93c 2498 553c
00000280: 19ac 4abb c5b3 84bc d64a 533c 1255 74bc
00000290: 8542 87bc 989a b73c 82f2 c33c 9700 da3c
000002a0: a97d 1bbd a420 dcbc 120f 2dbd 136b 7cbb
000002b0: b7c6 09bc 6839 b23a 29a3 913c 79fa 02bd
000002c0: 8152 633c ed51 0e3d f2df 3b3b 1333 c53c
000002d0: d3af 01bd cca5 2dbc 7a26 36bb 92be c4bc
000002e0: 84e1 083d b484 b4bb 23e9 fab9 9ae2 44bc
000002f0: bb0e 963c 5d3d df3b a919 183d f6ce 2f3d
00000300: 5ee1 5a3d 4daa 0b3c 568f 99bb 39f7 373c
00000310: 19cc 753a 2235 833c 26e0 fcbc 813f bd3c
00000320: 7fb4 ceba b8bc b5bc 04b3 1abc 5c72 6c3b
00000330: 1c11 b83c ba6a fc3b c578 743d ab16 703b
00000340: 10f2 bc3c 552f 89bb 2d04 cdbc 1d3c cd3b
00000350: a048 913c 48f0 673c a3e2 02bd ba71 d83b
00000360: 02f4 f1bb e7ff ad3c a725 2f3d 272f ad3c
00000370: 399b 9d3b f561 8a3c ee55 a73a 49f1 68bb
00000380: fb88 69bc 1765 323c dd20 af3b 431f c83c
00000390: cccc cc3b 5c19 28bb 4a17 5dbb 2b5d 0e3d
000003a0: 5e89 0dbd 415e b5bc 1b87 0dbc f7ee 433c
000003b0: b7fa 3ebc 92ca 473c 4dae 3d3d 9c52 5bbc
000003c0: 4ef9 6bbd f565 433c 00bb 6a3d 9097 09bb
000003d0: ec7b a13b f4aa 343d 1791 dbbc 1b08 0abd
000003e0: f13e 92bc b70c 91bc 85ac 123d 4473 083b
000003f0: 04ed 45bb 8b3e 393c e022 d3ba 1837 36bd
0.04880722 0.019616693 -0.036207862 0.055714626 0.031094566 -0.008776553 0.0061424063 -0.015032147
0.0036369304 -0.016506663 0.030756839 -0.013199398 0.017534617 -0.030545868 -0.020387538 -0.0028899263
0.022663321 0.001376433 -0.011699937 -0.014031247 0.013633919 0.027044883 0.023860652 0.003681748
0.01625019 -0.014042491 -0.04201301 0.027874032 0.038094565 0.0042667743 0.0067222845 0.006103782
-0.024883427 -0.031112332 0.054786384 -0.0108940145 -0.012817771 0.023448613 0.008353659 0.004987116
0.040279094 0.001999811 -0.006825798 -0.016826335 -0.0005150033 -0.0007790571 -0.010725057 -0.025863126
-0.011902858 0.007040326 0.0022102797 -0.009436891 0.006419648 -0.006088995 0.011518996 -0.0076112645
-0.012746011 0.014128319 0.063115604 0.031021986 -0.012608029 0.033449084 -0.04511318 -0.0016622697
0.022172863 0.014568059 -0.04728454 -0.013848729 0.060821053 0.016427169 0.02120885 -0.0013048294
0.013298901 0.01024879 0.033274557 -0.03552407 0.021893807 0.030407209 -0.011038883 0.051092077
-0.02493918 -0.0060451436 0.010216507 -0.00025804347 -0.049868718 -0.014875305 0.017187849 0.027532646
0.013227696 -0.018113345 -0.022226106 -0.010950483 0.025127538 -0.00944683 -0.0144606875 -0.009900311
-0.008626977 0.03212132 0.0031588252 0.045974966 -0.036525346 0.0047335057 0.031063508 0.016672011
-0.0016395916 -0.04014823 -0.031605747 -0.0064797085 -0.014973699 0.04431765 -0.067146346 0.035482746
-0.028884953 -0.016980872 -0.020720525 -0.0066864495 -7.019081e-05 0.047013912 -0.008227315 -0.00290236
-0.0014384716 -0.04246846 -0.01252236 0.028131086 0.019904528 -0.049386412 0.00087274925 0.06301864
-0.03313614 -0.056457166 0.07442939 -0.0060862447 -0.03787578 -0.018677937 0.0180857 0.01690346
-0.049479496 -0.023652952 -0.061080605 -0.0011643281 -0.0056090774 -0.015378489 -0.027380949 -0.0049332096
0.024360819 -0.043133922 -0.03073417 -0.010494932 0.008754266 0.019622464 -0.020722723 0.0116002625
-0.015019445 -0.06076781 -0.022280969 0.0008668668 0.023043243 -0.027356148 0.024543874 0.013036761
-0.0030925332 -0.016199002 0.01289626 -0.0149128605 -0.016511211 0.022412583 0.023919348 0.02661161
-0.037961636 -0.026871033 -0.0422507 -0.003851597 -0.008409194 0.0013597431 0.017777996 -0.03197715
0.013874651 0.0347461 0.0028667417 0.024072206 -0.03166182 -0.010598611 -0.002779393 -0.024016652
0.033418193 -0.0055089835 -0.00047857416 -0.012016917 0.01831757 0.006812735 0.037133846 0.042921983
0.053437583 0.00852449 -0.0046862764 0.011228376 0.0009376421 0.016016547 -0.030868601 0.02310157
-0.0015770345 -0.022184715 -0.009442095 0.0036078906 0.022469096 0.0077031525 0.059685487 0.0036634605
0.023064643 -0.0041865506 -0.025026405 0.0062632696 0.017734826 0.014156409 -0.03195442 0.006605354
-0.0073838243 0.021240188 0.042760517 0.021140648 0.0048097637 0.016892413 0.0012766698 -0.0035544208
-0.01425385 0.0108883595 0.005344494 0.02442897 0.0062499996 -0.002564988 -0.0033735805 0.03475682
-0.03455483 -0.02213967 -0.008638169 0.011958829 -0.011656455 0.012194293 0.046308804 -0.013386395
-0.057610802 0.011926164 0.057307243 -0.002099488 0.0049281027 0.044108346 -0.026802583 -0.033699136
-0.017852278 -0.017706258 0.03580906 0.0020820657 -0.0030201087 0.011306415 -0.0016108416 -0.044486135

classifier.bias f4 [7]
00000000: e34e 303b 2fde 28bc 3a7b 08b9 bf8c 25bc
00000010: bc2b 7fbb f101 383b b6b3 4f3b
0.002690249 -0.010306879 -0.00013015876 -0.010104357 -0.003893598 0.002807733 0.003169281
