CroSloEngual_BERT/adapters/person_adapter/pytorch_model_head.bin (torch_old, 12786 bytes, 2 tensors)

classifier.weight f4 [4, 768]
-0.0025462327 -2.8832006e-05 -0.01931545 0.01155438 0.00914732 0.021812834 0.024251224 0.009448329
0.03777658 0.0030650573 0.009219629 0.029223386 0.036259234 0.029573442 -0.009875801 -0.019546105
-0.004691712 0.026582712 0.037757598 0.019402405 9.765426e-05 0.0026448336 0.0010947656 0.0046098684
-0.0047739223 -0.025110852 -0.003275746 0.005868802 -0.011189661 -0.021015402 -0.0012033039 0.014036242
-0.00073407206 -0.016756745 0.05684159 -0.016911227 0.030617615 0.013547375 -0.014534689 -0.01642576
0.027994694 0.027930576 -0.015551513 0.038739353 -0.01408827 0.06369606 0.003647231 -0.007940398
0.005411475 -0.007321165 0.010036632 -0.0124673415 0.019001378 -0.0027597428 0.0316512 -0.01595232
0.025347276 -0.026254635 -0.0126914745 0.0041046687 -0.0040557175 0.024356248 -8.402569e-05 -0.0034667982
-0.0014258972 -0.01118309 0.009322783 -0.006675315 -0.02262647 0.04673634 0.037547857 -0.009656676
-0.04193202 -0.012056774 0.023038013 -0.0021723385 0.012815101 0.0015991698 0.03253577 0.008537954
-0.029768854 -0.016841516 -0.051895507 -0.013866738 0.012836178 -0.011645832 -0.030705273 0.004615103
-0.0007558462 -0.0064027742 0.019487081 0.014640253 -0.044248555 -0.019919114 0.009287153 0.0013281247
0.0043061636 0.00875864 -0.026873844 0.022141015 0.027242409 0.02343176 -0.031987865 0.01515818
-0.03520431 -0.0052678343 0.015367626 0.04261314 0.0067626443 0.035584718 0.0028411353 0.038178544
0.003491613 0.010545554 0.008317324 0.008057183 0.017867828 -0.039611302 0.0068052383 -0.025899624
-0.016715737 0.024998104 -0.016382152 0.044409305 0.01818826 -0.0066122026 0.019174935 -0.015060104
0.026589734 0.017946878 -0.014577125 -0.0054453714 -0.0075066485 0.0022329653 0.052220885 0.017465778
-0.04058581 0.012425667 0.0043859184 -0.014849469 -0.030496266 0.021851096 -0.020944793 0.015241931
0.018472938 0.021646377 -0.02290258 -0.022883045 -0.033158638 0.0041321134 0.022180839 -0.023694778
0.02323653 0.042136878 -0.025645973 -0.025362298 0.011246776 -0.012637975 -0.034090724 -0.03092405
0.00490766 -0.0074873934 -0.0050079306 -0.00782476 0.031168213 0.011909074 -0.009343957 0.015592749
0.017820133 0.036461998 0.0053865914 0.006609837 -0.0066590877 0.0031937056 0.048049543 0.029215634
-0.004244422 -0.027139971 0.012923491 -0.0069623464 -0.0017445281 0.011859821 -0.019279268 0.017018273
0.014709968 -0.041502554 -0.020352527 -0.034715615 -0.0032621108 0.022780765 0.021107238 -0.019923419
0.00025003398 0.009083846 -0.0083236 0.022022972 -0.03649244 -0.0016736344 -0.032186016 -0.011820918
0.005179495 0.001113545 -0.027918538 0.044294678 0.03702677 0.030736955 0.016884578 -0.008546284
-0.04616976 0.013079283 0.010928535 -0.00182647 -0.013278736 0.0033383034 0.017722353 0.026742088
0.000798944 0.018247021 0.0037980524 -0.012092401 0.002767215 -0.00084542023 0.034567896 -0.030416004
0.009576676 0.008181451 -0.0038805795 0.03669099 0.016326906 0.023500483 -0.028881105 0.012937177
0.027352354 0.012038212 -0.02811688 -0.007928708 0.010633173 -0.013603308 0.018564163 0.0142071815
-0.000684583 -0.008965342 0.018287791 0.0069478676 -0.018124081 0.0084782895 0.03894017 0.01906869
0.008073842 -0.00026879704 -0.015462035 3.9383725e-05 -0.019430704 -0.04095277 -0.03455925 0.025014618
00000000: b2de 26bb 43dc f1b7 6f3b 9ebc 954e 3d3c
00000010: a4de 153c d4b0 b23c 81aa c63c 2acd 1a3c
00000020: 9dbb 1a3d 21df 483b ed0d 173c e265 ef3c
00000030: 9084 143d 0144 f23c 1dce 21bc 271f a0bc
00000040: efbc 99bb fdc3 d93c b6a7 1a3d cbf1 9e3c
00000050: bbcb cc38 f254 2d3b 3d7e 8f3a 610e 973b
00000060: 906e 9cbb 46b5 cdbc e6ad 56bb 144f c03b
00000070: d754 37bc 7e28 acbc 2eb8 9dba 44f8 653c
00000080: be6e 40ba 7145 89bc bad2 683d 6a89 8abc
00000090: cbd1 fa3c cff5 5d3c e722 6ebc 518f 86bc
000000a0: 2155 e53c aace e43c c6cb 7ebc 28ad 1e3d
000000b0: 7dd2 66bc 1473 823d 6206 6f3b 7118 02bc
000000c0: be52 b13b 62e6 efbb b070 243c d243 4cbc
000000d0: c7a8 9b3c cddc 34bb b0a4 013d 71ae 82bc
000000e0: 17a5 cf3c f613 d7bc e7ef 4fbc 7580 863b
000000f0: d3e5 84bb c186 c73c f336 b0b8 3933 63bb
00000100: 2ce5 baba 4739 37bc 96be 183c 9abc dabb
00000110: 265b b9bc 9b6e 3f3d c8cb 193d 0937 1ebc
00000120: e9c0 2bbd c789 45bc 37ba bc3c cb5d 0ebb
00000130: 6ef6 513c 3c9b d13a 3a44 053d c6e2 0b3c
00000140: d0dd f3bc 38f7 89bc 6290 54bd 5131 63bc
00000150: d54e 523c 29ce 3ebc a089 fbbc 4a3a 973b
00000160: fb23 46ba 5dce d1bb 5fa3 9f3c acdd 6f3c
00000170: f93d 35bd 692d a3bc 2529 183c 7814 ae3a
00000180: b81a 8d3b 6680 0f3c 8926 dcbc 1361 b53c
00000190: 792b df3c f6f3 bf3c b505 03bd 045a 783c
000001a0: 6532 10bd cc9d acbb 7fc8 7b3c 1e8b 2e3d
000001b0: 2c99 dd3b 48c1 113d 5732 3a3b 1b61 1c3d
000001c0: 8cd3 643b 42c7 2c3c 6345 083c 4602 043c
000001d0: 8d5f 923c 763f 22bd 7afe de3b 732b d4bc
000001e0: 71ef 88bc d3c8 cc3c dd33 86bc 88e6 353d
000001f0: 8cff 943c 2dab d8bb c114 9d3c a8be 76bc
00000200: b7d2 d93c 5505 933c e5d4 6ebc 166f b2bb
00000210: 55fa f5bb f156 123b 91e5 553d 6414 8f3c
00000220: 4e3d 26bd 0695 4b3c c0b7 8f3b 304b 73bc
00000230: 4ed3 f9bc 1201 b33c 6a94 abbc 4bb9 793c
00000240: 8f54 973c be53 b13c 319e bbbc 3975 bbbc
00000250: 5ad1 07bd ae66 873b 97b4 b53c 8d1b c2bc
00000260: 895a be3c b897 2c3d 8117 d2bc 98c4 cfbc
00000270: 6644 383c 820f 4fbc b7a2 0bbd 6f54 fdbc
00000280: 70d0 a03b cf58 f5bb 9119 a4bb 6c33 00bc
00000290: 7b54 ff3c 471e 433c 6517 19bc bb78 7f3c
000002a0: 87fb 913c 2d59 153d 0182 b03b 5597 d83b
000002b0: 7a34 dabb 7d4d 513b 99cf 443d a055 ef3c
000002c0: cb14 8bbb a554 debc 0dbd 533c 6524 e4bb
000002d0: a6a8 e4ba b24f 423c 8eef 9dbc e869 8b3c
000002e0: 1402 713c 95fe 29bd 58ba a6bc f631 0ebd
000002f0: 23c9 55bb ba9e ba3c 16e9 ac3c 7036 a3bc
00000300: fe16 8339 69d4 143c b55f 08bc 8569 b43c
00000310: 1979 15bd da5d dbba 7cd5 03bd 86ac 41bc
00000320: c1b8 a93b 5ff4 913a 6bb5 e4bc 566e 353d
00000330: 62a9 173d 11cc fb3c 8751 8a3c b705 0cbc
00000340: 811c 3dbd 7d4a 563c 990d 333c 2a66 efba
00000350: 0e8f 59bc 70c7 5a3b 782e 913c 3912 db3c
00000360: 3970 513a c77a 953c bfe8 783b 351f 46bc
00000370: 2a5a 353b 319f 5dba 1197 0d3d fc2a f9bc
00000380: 7ee7 1c3c 7e0b 063c 5251 7ebb 4b49 163d
00000390: 01c0 853c 1684 c03c 1198 ecbc 74f6 533c
000003a0: 0b12 e03c ec3b 453c 5f55 e6bc 69e7 01bc
000003b0: c336 2e3c 69e0 5ebc df13 983c 3dc5 683c
000003c0: 9675 33ba 5fe3 12bc 47d0 953c f0aa e33b
000003d0: f478 94bc 86e8 0a3c ba7f 1f3d f135 9c3c
000003e0: 2648 043c 54ed 8cb9 7a54 7dbc f42f 2538
000003f0: 242d 9fbc 17be 27bd 008e 0dbd 75eb cc3c

classifier.bias f4 [4]
-0.0026295544 -0.0021229645 0.0027041072 -0.0027525849
00000000: 9a54 2cbb 6f21 0bbb 6437 313b b664 34bb
