CroSloEngual_BERT/adapters/gender_adapter/pytorch_model_head.bin (torch_old, 12786 bytes, 2 tensors)

classifier.weight f4 [4, 768]
0	0xbc3a4a49	-0.01137025
1	0x3cb294eb	0.021799525
2	0xbcd80fc7	-0.02637471
3	0x3c4d06f8	0.0125138685
4	0x3cf34b77	0.02969907
5	0x3ce6ca4a	0.02817263
6	0x3d20ca2a	0.0392553
7	0x3bae04d9	0.0053106365
8	0x3c82040c	0.01587107
9	0xbc990f3a	-0.018684018
10	0x3c140d58	0.0090363845
11	0x3d07a5f7	0.03311726
12	0x3c95e1e8	0.018296197
13	0x3cd9dbcb	0.026594063
14	0xbcdd0c23	-0.026983326
15	0xbc9b6b5d	-0.018972093
16	0xbc6198ef	-0.013769372
17	0x3becfbee	0.007232181
18	0x3d276229	0.040865097
19	0x3be19017	0.006883632
20	0xbb8fccc5	-0.004388424
21	0x3c9e6d60	0.019339263
22	0x3c3420c7	0.010994143
23	0x3c3e881b	0.01162913
24	0xbc860a72	-0.016362403
25	0xbce65f8a	-0.028121728
26	0x3b3c95db	0.0028775844
27	0x3c5c4e74	0.013446439
28	0xbc022670	-0.0079437345
29	0xbcf29518	-0.029612109
30	0xbc9dd304	-0.01926566
31	0x3ceb160b	0.028697034
32	0x39fc6134	0.00048137608
33	0xbc106930	-0.008814141
34	0x3ce8b23b	0.0284053
35	0x3c34c883	0.011034134
36	0x3bc99b1b	0.006152523
37	0xbbb95ef8	-0.005657073
38	0xbba8112f	-0.0051290016
39	0xbcb95b1d	-0.022626454
40	0x3cd6eabc	0.026234977
41	0x3d2deda1	0.04246295
42	0xbcc1ef53	-0.023673689
43	0x3d30305f	0.04301488
44	0xbcab2205	-0.020890245
45	0x3d97f87c	0.074204415
46	0xbbdf1563	-0.0068079694
47	0xbcdd89f0	-0.027043313
48	0x3aa56003	0.0012617115
49	0xbc872d1b	-0.016501
50	0x3cc963a5	0.024583647
51	0xbc4c7b70	-0.012480602
52	0x3d05a09a	0.032623865
53	0x3b9b6675	0.0047424384
54	0x3d1dfa5c	0.03856884
55	0xbcee8c9b	-0.02911978
56	0x3cd703c2	0.026246909
57	0xbd08fc36	-0.033443652
58	0xbbec0789	-0.0072030467
59	0x3c96e965	0.018421838
60	0xbc3d966f	-0.011571511
61	0x3c02898e	0.007967366
62	0x3bc908a8	0.006135065
63	0x3b878399	0.0041355607
64	0xbc06e81b	-0.008234049
65	0xbca5abe0	-0.020223558
66	0x3c40cfea	0.011768321
67	0xbce714f6	-0.028208237
68	0xbc8a885b	-0.016910722
69	0x3d1204ed	0.03564923
70	0x3d4777f4	0.04869838
71	0x3c071a1e	0.008245973
72	0xbd00616c	-0.03134291
73	0xbb9c5100	-0.004770398
74	0x3cf3dcd9	0.029768394
75	0x3cef1cb6	0.029188495
76	0xb9a3dd49	-0.00031254653
77	0xbbd60c18	-0.0065322034
78	0x3d2dd0b4	0.042435363
79	0x3bdbc0b2	0.0067063207
80	0xbbf5bc70	-0.00749927
81	0xbc21003e	-0.009826718
82	0xbd08462f	-0.033270057
83	0xbcdab29c	-0.026696496
84	0x3c4d325a	0.012524212
85	0xbc105eab	-0.008811633
86	0xbc3aa23b	-0.011391218
87	0x3c91ffb3	0.017822122
88	0xbc750cbd	-0.01495665
89	0xbc6c073c	-0.014406022
90	0x3c75b00c	0.014995586
91	0x3c05b832	0.008161591
92	0xbd6fa32d	-0.058505226
93	0xbcfa1d7e	-0.030531641
94	0x3cb993cf	0.022653488
95	0xbc98cefc	-0.018653385
96	0xba8c17f1	-0.0010688287
97	0xbbbfe4e5	-0.005856144
98	0xbcd28202	-0.025696758
99	0x3d067a39	0.032831404
100	0x3cf836ca	0.030299563
101	0x3d1276de	0.03575789
102	0xbd2512a1	-0.04030097
103	0x3c876239	0.016526328
104	0xbd21f2f0	-0.039538324
105	0x3b2f8638	0.0026782881
106	0x3c896cef	0.016775576
107	0x3d1b6073	0.037933778
108	0xbcd5e791	-0.026111396
109	0x3d3950ad	0.045242954
110	0x3bb37c5e	0.005477472
111	0x3d0ab67f	0.033865448
112	0x3c3774c3	0.011197272
113	0x3c5297bc	0.012853559
114	0xbc0a0e03	-0.008426192
115	0x3b0e1d99	0.0021685122
116	0x3d10f3ae	0.03538864
117	0xbd15e484	-0.036594883
118	0x3c32be20	0.010909587
119	0xbc6d1909	-0.014471301
120	0xbca6624e	-0.020310547
121	0x3ced9a4a	0.029004235
122	0xbc691fcd	-0.014228773
123	0x3d35e7d0	0.044410527
124	0x3c734806	0.014848715
125	0xbbf4107a	-0.007448253
126	0x3cc5211e	0.024063643
127	0xbcfd3955	-0.030911127
128	0x3b75abac	0.0037486358
129	0x3d0442a7	0.032290127
130	0x3c18836b	0.009308676
131	0x3c19a17c	0.00937688
132	0xba428cbc	-0.0007421484
133	0x3cafa4db	0.021440914
134	0x3d1b638a	0.037936725
135	0x3d279bf7	0.040920224
136	0xbc9c8f40	-0.019111276
137	0x3bc80401	0.006103993
138	0x3c8faf31	0.017539592
139	0xbc797fc0	-0.015228212
140	0xbcb41461	-0.021982374
141	0x3d0b271f	0.033972856
142	0xbc519b88	-0.012793429
143	0x3c941453	0.018076098
144	0x3cf63284	0.030053385
145	0x3caa9c13	0.020826375
146	0xbd0046ea	-0.03131763
147	0xbc801571	-0.015635224
148	0xbd2e2a10	-0.042520583
149	0xbc2c76fd	-0.010526416
150	0x3d1ebd34	0.038754657
151	0xbd1b0b15	-0.037852366
152	0x3cc43d9a	0.023955155
153	0x3d18021f	0.037111398
154	0xbcf856c1	-0.030314805
155	0xbcfc050d	-0.030764127
156	0x3d07bd3b	0.03313945
157	0xbc836057	-0.01603715
158	0xbcf6f0eb	-0.030144176
159	0xbd06cccd	-0.032910157
160	0x3be93c4d	0.007117784
161	0xbc66fae7	-0.014097906
162	0x3b976d18	0.0046211593
163	0x3c2e224d	0.010628295
164	0x3c7441bf	0.014908253
165	0xbbdcafc7	-0.0067348215
166	0xbc42c1cb	-0.011887024
167	0x3c8e371c	0.017360263
168	0x3bdb0d7f	0.0066849585
169	0x3d5ae3bd	0.053439844
170	0x3b62c982	0.0034604971
171	0xbc4330f5	-0.011913528
172	0xbc23f7e6	-0.010007834
173	0xbb30e01d	-0.002698905
174	0x3d5c6f18	0.053816885
175	0x3cce5253	0.02518574
176	0x3c45e79a	0.012079144
177	0xbce7a289	-0.028275745
178	0x3c844876	0.016147833
179	0xbcec7c65	-0.02886791
180	0xbbfde0a1	-0.007747725
181	0xba142859	-0.0005651764
182	0xbd06a78b	-0.032874625
183	0x3c624a21	0.013811619
184	0x3c1ec2bc	0.009689983
185	0xbd03df5a	-0.032195427
186	0x3acba51e	0.001553688
187	0xbd1dac1d	-0.03849422
188	0xbac395c9	-0.0014921959
189	0x3c81f679	0.015864598
190	0x3d2900bf	0.041260477
191	0xbcc6320d	-0.024193788
192	0xbaedffc4	-0.0018157889
193	0x3c8309ab	0.015995821
194	0x3bc362d9	0.0059627113
195	0x3c849d4b	0.016188284
196	0xbd03eccc	-0.03220825
197	0xbbe6beb7	-0.007041778
198	0xbd19c342	-0.037539728
199	0x3bcaee8e	0.0061929887
200	0x3af4393f	0.0018632783
201	0xbb9893f4	-0.0046563093
202	0xbce71ae5	-0.028211066
203	0x3d38f59a	0.0451561
204	0x3d56aa34	0.052408412
205	0x3cd3e3ab	0.025865396
206	0x3c7efe46	0.015563553
207	0xbc919152	-0.01776949
208	0xbd5cbc1a	-0.053890325
209	0x3c43fe15	0.011962433
210	0x3c8529dc	0.016255312
211	0x3caab63e	0.020838853
212	0xbccedd55	-0.025252024
213	0xbb41bff3	-0.0029563874
214	0x3b942168	0.004520584
215	0x3d1522c6	0.036410116
216	0x3a42b9a2	0.0007428174
217	0x3c2fe5e7	0.010735965
218	0x3cc48af9	0.023992049
219	0xbc869f8b	-0.016433498
220	0x3b9ef835	0.004851366
221	0x3c0b6362	0.008507581
222	0x3c9f7b69	0.019468026
223	0xbd484369	-0.048892412
224	0x3c97030a	0.018434066
225	0x3c5a07e4	0.013307545
226	0xbd1c270f	-0.038123187
227	0x3d141380	0.03615141
228	0x3cd15dfa	0.025557507
229	0x3c9f1ed1	0.019423874
230	0xbd233fd0	-0.03985578
231	0x3cbe7fc8	0.02325429
232	0x3c97680e	0.018482234
233	0x3c14d1c8	0.009083219
234	0xbc8b089a	-0.016971875
235	0xbca13f19	-0.019683408
236	0x3ca8afd8	0.020591661
237	0x3bd306be	0.0064400127
238	0x3cfa6516	0.03056578
239	0xbc1c3e58	-0.009536348
240	0x3c926f26	0.017875265
241	0xbc9e86e1	-0.019351425
242	0x3cde82fe	0.027162071
243	0x3947a6f4	0.00019040314
244	0xbc46a80f	-0.012125029
245	0x3ccd43a5	0.02505667
246	0x3d0a2371	0.033725206
247	0x3c9bb093	0.019005096
248	0xbb76354b	-0.0037568386
249	0x3c981b48	0.018567696
250	0xbb7853a6	-0.0037891655
251	0xbccda4c0	-0.025102973
252	0xbd08ad5a	-0.033368446
253	0xbced6085	-0.028976688
254	0xbcce0c2c	-0.025152288
255	0x3c83d144	0.016090997

classifier.bias f4 [4]
0	0xbb0365bd	-0.0020049654
1	0x3b022966	0.0019861101
2	0xba7e5e8b	-0.0009703419
3	0xba95ccbc	-0.0011428813
