CroSloEngual_BERT/adapters/number_adapter/pytorch_model_head.bin (torch_old, 12786 bytes, 2 tensors)

classifier.weight f4 [4, 768]
000000 3a d2 1a bc e2 3a 97 3c 49 af 66 bc be 09 aa bb
       -0.009449536 0.018460695 -0.014079877 -0.0051891496
000010 e1 53 3b 3d e1 9b 52 3c 5f cf 40 bc 15 1b 30 3c
       0.04573429 0.012854547 -0.011768191 0.010748644
000020 bd e5 43 3d fd 5e 01 3c bc bc 8d 3c f9 71 16 3d
       0.047826517 0.007896182 0.01730191 0.036729787
000030 69 e2 ca 3c b1 d9 27 3c af d4 11 bd 7a 1e 34 bc
       0.024766164 0.010244773 -0.03560322 -0.010993594
000040 d3 17 b1 bc 30 49 8b 3c 94 3a 2b 3d 0d 70 80 3c
       -0.021617806 0.017002672 0.04180391 0.01567843
000050 0f 9a 1a 3c 00 5e 60 3c 6f da 0a 3c 6c f5 ad 3c
       0.0094361445 0.013694286 0.00847493 0.02123519
000060 9a 2a ee 3a ef f3 c3 bb b2 b3 b3 bb 44 f9 f8 bb
       0.0018170655 -0.005980007 -0.005484068 -0.007598074
000070 09 10 a8 bc 56 89 fd bb e9 ce d5 ba 1d 1a f7 3c
       -0.020515459 -0.007737319 -0.0016312274 0.030163819
000080 69 dc d4 bb 8c aa 73 3c df d2 82 3d 74 0b a2 bb
       -0.0064960015 0.0148722045 0.06387877 -0.004945213
000090 63 c8 fb 3c 9e 9e bd 3c ab 31 f8 bb 23 db 6d bb
       0.0307352 0.023146924 -0.0075742803 -0.0036293946
0000a0 96 24 14 3d a9 58 bf 3c cd 72 57 bb 51 18 89 3d
       0.036167704 0.023357706 -0.0032874823 0.06694091
0000b0 ab d2 81 3c 8d df 7d 3d 1a dd 66 3b fb 6e 80 3c
       0.015847525 0.061980773 0.0035227002 0.01567792
0000c0 e1 f1 2e 3c 8b 22 7f bc e3 18 ab 39 1b 40 1e bd
       0.010677786 -0.0155722005 0.00032634204 -0.038635354
0000d0 4b fa 46 3d b2 23 46 3c 10 c9 0e 3d 97 20 17 bd
       0.04857854 0.012093471 0.034859717 -0.036896314
0000e0 5c 2b c9 3c e6 33 13 bd e5 fd 5d bc 54 68 9b 3b
       0.024556808 -0.035938166 -0.013549303 0.0047426615
0000f0 eb 44 be bc 83 88 cb 3c 6c b9 8d 3c f9 ac 94 b9
       -0.023226222 0.024845367 0.01730033 -0.00028357634
000100 15 ce cc 3a 46 68 4d bc 43 db 3d bc 9b 0f 97 bb
       0.0015625382 -0.012537068 -0.011587921 -0.0046100146
000110 d0 16 39 bd 13 44 be 3c 92 85 71 3d e5 c7 e4 bb
       -0.04518777 0.02322582 0.058965273 -0.006981837
000120 73 c7 27 bd 42 b5 50 bc 5a 7e a8 3c 5c cb 3b 3c
       -0.040961694 -0.012738528 0.020568062 0.011462059
000130 e6 e3 76 bc 31 e1 9e bb a9 5a 50 3d a0 2b a7 3c
       -0.015068984 -0.0048486223 0.05086771 0.020406544
000140 08 2e e1 bc 71 13 f5 bc 9d e0 74 bd 35 71 9d 3c
       -0.02748777 -0.029916497 -0.05978452 0.01921902
000150 6a f9 d3 3b 54 7c a4 3b a4 60 10 bd 81 bf 57 3c
       0.0064689415 0.005019704 -0.035248414 0.013168217
000160 d8 fa 14 bc 67 ba ca 3c fb ed c1 3c d1 d6 43 3b
       -0.009093009 0.024747087 0.023673048 0.002988268
000170 db 9c 69 bd bb 2d ab ba 9b f8 c4 3c d0 f8 4c 3c
       -0.057034355 -0.0013059893 0.024044326 0.012510493
000180 99 24 01 3c 9e e2 6c 3c f9 77 db bc 2b 86 ba 3c
       0.007882261 0.014458327 -0.026790606 0.022769054
000190 a8 9c 2b 3d 9c 49 d8 3c 14 eb 59 bd 09 b4 a6 bc
       0.041897446 0.026402287 -0.053202704 -0.02034952
0001a0 91 77 3e bd 10 83 43 bb 7f 51 92 3b 34 6f 4d 3d
       -0.046500746 -0.0029832758 0.0044652815 0.05015488
0001b0 ff 05 e2 bc 91 92 e9 3c 43 30 51 3c 35 89 16 3c
       -0.02759075 0.028512271 0.012767854 0.009187986
0001c0 d5 ec 96 3b 48 c3 df bb 34 9c 57 bc 57 4b 11 3d
       0.0046058693 -0.0068286993 -0.0131598 0.03547224
0001d0 3b 87 b7 3c c5 04 2c bd dd 6c 0f 3d 20 81 07 bd
       0.02240335 -0.041996736 0.03501593 -0.033082128
0001e0 33 1d e6 bc 8d 11 ec 3b 33 1e c5 bc c1 97 46 3d
       -0.028090095 0.0072042407 -0.024062252 0.048484568
0001f0 b6 e6 e1 3c c3 5d 1f 3c 74 8f 0d 3d 91 ac 13 bd
       0.027575832 0.009726944 0.034560636 -0.036053244
000200 f3 81 81 3c 98 dd 92 bb ac 30 cf bb eb 60 b8 bc
       0.015809035 -0.0044819824 -0.006322941 -0.022507152
000210 df 5a a0 bb f8 6a b2 3b d1 af 6c 3d ea ba 4b 3d
       -0.004893645 0.0054448806 0.05778486 0.049738802
000220 ea a2 bc bc 0f f3 46 bc 99 59 63 bc 40 99 a3 bc
       -0.023026902 -0.012142911 -0.013876342 -0.019970536
000230 d1 31 51 bd 95 c8 19 3d 57 6d ed bc 76 de 50 3c
       -0.0510729 0.037544806 -0.028982801 0.012748351
000240 af d0 d3 3c a0 dd c8 3c e8 9a 2d bd 37 f6 6c bc
       0.025856344 0.024519742 -0.04238406 -0.014462999
000250 5e a7 e5 bc 1d 14 2c 3c eb de 26 3d c7 6c 15 bd
       -0.028033908 0.010502842 0.040739935 -0.03648069
000260 62 9b cb 3c f6 9c 32 3d df 19 1c bd 60 06 d5 bc
       0.024854366 0.04360672 -0.03811061 -0.026004016
000270 d0 f4 80 3c bb c8 45 bc aa 10 d3 bc b6 8e 85 bc
       0.015741736 -0.012071784 -0.025764782 -0.016303401
000280 01 d8 e6 3b b0 d8 86 bc ac 04 aa 3b 9b 33 45 3c
       0.0070447926 -0.016460747 0.005188545 0.0120362295
000290 91 d9 07 3b be a0 d9 3c 33 4e 9a bc 84 1d 98 3c
       0.0020729045 0.026565906 -0.018836116 0.018568762
0002a0 2e 1b b4 3c 2c 7d 25 3d 36 0c 0f bc 6e 77 61 bc
       0.021985617 0.040402576 -0.008730939 -0.013761384
0002b0 2d 61 90 3b 80 d7 a4 bc d7 db 1c 3d 60 77 00 3d
       0.0044061155 -0.02012229 0.038295593 0.031363845
0002c0 a4 2d f0 bc 9b 1f aa bc a8 d9 26 3c 3e 14 29 bd
       -0.029318638 -0.020767024 0.010183729 -0.04127907
0002d0 34 8f 31 bc e7 a1 b2 bb 41 59 f0 3a eb 1f 40 3c
       -0.010837365 -0.005451429 0.0018337147 0.01172636
0002e0 63 6c 51 3c 58 33 0f bd ca 6f 7f bc 3b f6 8f bc
       0.012782189 -0.034961075 -0.015590617 -0.017573467
0002f0 6f c1 73 bc 10 2d ed 3c c0 b4 73 3d 5b 23 08 bd
       -0.014877661 0.028952152 0.05949855 -0.033236843
000300 eb 3c bb bb 8c 2f 99 3b d5 01 bf bc 40 8b 3d 3c
       -0.005714049 0.0046748575 -0.023316303 0.011568844
000310 53 b6 46 bd c4 ac 26 3c 4d 94 25 bd 03 fe 2a 3c
       -0.04851372 0.0101730265 -0.040424634 0.010436538
000320 2c 0f e8 3b 2a 96 58 bb 3b a3 1e bd ea e5 6d 3d
       0.0070818868 -0.003304849 -0.038729887 0.05808059
000330 55 11 03 3d 46 af 9a 3c 9b 30 ac bc 7b 87 53 3b
       0.03199895 0.018882405 -0.02101927 0.0032276798
000340 5a 29 58 bd 67 14 ee 3c 34 25 a4 3c e1 15 2d 3c
       -0.05277381 0.029062463 0.020037271 0.010564298
000350 a9 7b 8a bc 92 ba 71 bb 73 1b 14 3d 89 bd cf 3c
       -0.016904669 -0.0036884886 0.03615899 0.025358932
000360 d3 17 98 bc 04 25 2c 3d 34 11 d2 3c 04 71 7d bc
       -0.018566048 0.04202749 0.025642969 -0.01546884
000370 d2 e7 8f 3c 27 67 a0 bc b2 e9 02 3d 79 26 0f bd
       0.017566595 -0.019580437 0.03196115 -0.0349488
000380 2b 30 b1 3c 39 5f 37 bb 13 e7 57 3c 4c ef 18 3d
       0.021629414 -0.002798034 0.013177651 0.037337586
000390 e0 65 2a 3d d2 e1 3a 3d 1b d0 6b bd e4 f6 79 3c
       0.04160106 0.045625515 -0.05757151 0.015256617
0003a0 04 d8 11 3d b3 85 95 bb 94 5b f0 bc e2 ee 66 bc
       0.0356064 -0.0045630573 -0.029340543 -0.01409504
0003b0 79 c9 08 3c 6f fc ab 3b 35 66 82 3a 85 b3 5d bb
       0.008348816 0.0052485983 0.0009948673 -0.0033828926
0003c0 05 cd 10 3b 49 83 1e bd 73 5d 7e 3c ed e8 b0 3b
       0.0022094857 -0.038699422 0.01552521 0.0053988607
0003d0 87 18 e0 bc 2f e8 8c 3c 0a 1d 6b 3d 3c 8f 78 ba
       -0.027355446 0.017200558 0.05740074 -0.0009481793
0003e0 81 88 ed 3b c1 5e 2a 3c d8 98 b8 bc 3f 14 b2 ba
       0.0072489385 0.010398568 -0.02253382 -0.0013586356
0003f0 16 77 e1 bc ce a0 13 bd 49 c6 ec bc c7 43 5e 3c
       -0.027522605 -0.036042027 -0.028903143 0.013565964

classifier.bias f4 [4]
000000 be fc e3 bb 43 a6 4b 3b 16 25 6b 36 fd f2 79 3b
       -0.0069576195 0.0031074442 3.5039316e-06 0.0038139217
