mBERT/adapters/gender_adapter/pytorch_model_head.bin (torch_old, 12786 bytes, 2 tensors)

classifier.weight f4 [4, 768]
0	0x3c439b36	0.011938861
1	0x3d0f9568	0.035054594
2	0x3ba69e6d	0.005084804
3	0x3cb57375	0.02214978
4	0x3b23a769	0.002497161
5	0x3ca5b913	0.020229852
6	0xbae347ca	-0.001734012
7	0x3d0c221e	0.034212224
8	0x3c078b6e	0.008272989
9	0xbcaed88d	-0.021343494
10	0x3c8c6f2b	0.017142853
11	0x3c8e0de1	0.017340602
12	0xbc3d8bb1	-0.01156895
13	0x3d1b76ab	0.037954967
14	0xbc01997a	-0.007910127
15	0x3c73dea6	0.0148846265
16	0x3b3547d6	0.0027661226
17	0xbba3bb59	-0.004996699
18	0xbca773a6	-0.020440888
19	0x3baae459	0.0052152094
20	0xbd1f6431	-0.03891391
21	0x3b81a4ed	0.0039564283
22	0x3bd57ed8	0.006515365
23	0x3bb10313	0.005401978
24	0xbc00e1cf	-0.007866337
25	0x3c417db5	0.011809756
26	0xbc0842e0	-0.0083167255
27	0xbd80a884	-0.06282142
28	0xbcb9c88b	-0.022678634
29	0x3d269b9d	0.04067575
30	0x3cd9adf4	0.026572205
31	0xbc19f7fb	-0.009397502
32	0xbd40adf8	-0.04704091
33	0xbc858793	-0.016299998
34	0x3cadf59a	0.021235276
35	0xbccb9803	-0.024852758
36	0xbcba8f02	-0.02277327
37	0x3d2db126	0.04240527
38	0xbce3fb46	-0.027829777
39	0xb97c2b76	-0.00024048783
40	0xbcf125a3	-0.029436892
41	0x3c51e3e8	0.012810685
42	0x3cd594b4	0.026071884
43	0xbd39d395	-0.045367796
44	0x3b834768	0.004006315
45	0xbc1f2fa9	-0.009715953
46	0xbcebcdc9	-0.02878465
47	0x3cd90d07	0.02649547
48	0x3cfb6bfd	0.030691141
49	0xbc811fde	-0.015762266
50	0x3b6fbc1d	0.003658063
51	0xba8e6f01	-0.0010866822
52	0xbc381fd1	-0.011238054
53	0xbcd66fe7	-0.026176406
54	0x3ca7e21b	0.020493558
55	0xbd359405	-0.044330616
56	0x39ff49d9	0.0004869241
57	0xbcca83e2	-0.02472109
58	0xbbc12f4e	-0.0058955317
59	0x3c12e3a9	0.008965411
60	0xbd0d2cd9	-0.0344666
61	0xbd18a3bc	-0.037265524
62	0x3d07a7a7	0.03311887
63	0xbc426f08	-0.011867292
64	0x3bc34356	0.005958955
65	0xbc65187b	-0.013982887
66	0xbc9a8a56	-0.018864792
67	0x3c87d6f9	0.016582
68	0xbcb8f8a0	-0.022579491
69	0xbc4f32c0	-0.012646377
70	0xbc9781f5	-0.018494586
71	0x3cc9e64e	0.02464595
72	0xbcd3e462	-0.025865737
73	0xbc5d1ed5	-0.01349612
74	0x3bd14a70	0.0063870475
75	0xbc697a63	-0.014250371
76	0x3cc984fc	0.024599545
77	0x3bbacc17	0.005700599
78	0x3a60febc	0.000858288
79	0xbb0fcc9a	-0.002194202
80	0xbd21983d	-0.039451826
81	0xbc447ae5	-0.011992191
82	0x3aa0b3ec	0.0012260652
83	0x3bc47fa6	0.005996662
84	0xbd35ea0b	-0.044412654
85	0x3d24cebe	0.040236227
86	0x3d1de77d	0.038550843
87	0xbcb32165	-0.02186651
88	0xbd031acf	-0.03200799
89	0xbd06b969	-0.032891665
90	0x3c98bbd4	0.01864425
91	0xbcaedb48	-0.021344796
92	0x3be40ae2	0.006959305
93	0xbc8547db	-0.016269615
94	0xbc971750	-0.018443733
95	0xbb93b580	-0.0045077205
96	0x3cb16049	0.021652358
97	0x3bdcdae1	0.0067399596
98	0xbd17f5a6	-0.037099503
99	0x3ce7eaf0	0.02831027
100	0x3b8526bc	0.0040634554
101	0xbd51a71d	-0.051184762
102	0xbc6ddd76	-0.014518132
103	0xbcddce8e	-0.027076032
104	0x3c0cfddb	0.008605446
105	0x3c66baee	0.014082653
106	0x3c822c89	0.015890377
107	0x3c2b1943	0.010443035
108	0xbb27309e	-0.0025511156
109	0x3bdfbfae	0.00682827
110	0xbd83168c	-0.06400785
111	0xbcbd60f2	-0.023117516
112	0xbc123f9e	-0.0089263
113	0xbb0c6a2d	-0.002142559
114	0x3af65e9c	0.0018796506
115	0xbd632a96	-0.055460535
116	0xbc4ac2e7	-0.01237557
117	0x3c71862b	0.014741461
118	0xbac7f620	-0.0015255846
119	0xbd3f3b16	-0.046687208
120	0x3a4dad26	0.00078459305
121	0x3c8edd20	0.017439425
122	0xbb9547a3	-0.004555659
123	0xbb2ba24c	-0.0026189266
124	0x3ba0fd99	0.0049130437
125	0x3bcff4b4	0.0063463096
126	0x3ccc6215	0.024949113
127	0x3d07c519	0.03314695
128	0x3b64d735	0.0034918312
129	0xbd12e0bf	-0.035858866
130	0xbd2801bb	-0.041017275
131	0x3d4c536b	0.04988424
132	0x3c8086da	0.015689302
133	0xbcae5283	-0.021279579
134	0xbb4ca984	-0.003122897
135	0xbc6e0c76	-0.014529338
136	0xbca99b42	-0.020703916
137	0x3cef184d	0.029186392
138	0x3bf681d5	0.0075228014
139	0xbcd8c0a9	-0.026459055
140	0xba2f72b9	-0.0006692815
141	0x3d0a9fed	0.033843923
142	0xbcfc529a	-0.030801106
143	0xbb253b2d	-0.0025212273
144	0x3b35913c	0.0027704975
145	0xbc0f9e30	-0.008765742
146	0xbc801e53	-0.01563946
147	0xbbe229cf	-0.0069019566
148	0x3cc8914d	0.024483347
149	0x3cf85c9f	0.030317603
150	0x3c5c09e3	0.013430092
151	0xbb1745cf	-0.002308238
152	0x3af2567a	0.0018488907
153	0xbcf72d0d	-0.03017285
154	0x3a23f505	0.00062544673
155	0xbc60a4d2	-0.013711171
156	0xb9fe508d	-0.0004850667
157	0x3cafdabf	0.021466611
158	0xbca50854	-0.020145573
159	0x3b2b334d	0.0026123107
160	0x3cd59cb5	0.0260757
161	0xbd6e86d4	-0.05823405
162	0xbc7d3455	-0.015454371
163	0x3d1b4ff4	0.037918046
164	0x3ce4441c	0.027864508
165	0x3d45ea02	0.04831887
166	0xb9f774ec	-0.00047198625
167	0xbbf6f0df	-0.0075360383
168	0xbc962815	-0.01832966
169	0xbbd83979	-0.006598648
170	0x3cb870d2	0.022514734
171	0xbc873c04	-0.01650811
172	0x3d03fb50	0.032222092
173	0xbcf7494d	-0.03018632
174	0x3cf35028	0.029701307
175	0x3c893fac	0.016753994
176	0x3c8d7be5	0.017270992
177	0xb85e453b	-5.29934e-05
178	0xbbf5f6af	-0.0075062136
179	0xba24d679	-0.00062880624
180	0x3a15d320	0.0005715359
181	0xbc970613	-0.018435514
182	0x3cf0da16	0.029400866
183	0x3c3f63d8	0.011681519
184	0xbd31fb51	-0.043452565
185	0x39cf1596	0.000394982
186	0x3d2dc7ec	0.04242699
187	0x3d01e602	0.031713493
188	0x3cac5f60	0.021041572
189	0xbab04e48	-0.0013451064
190	0x3bf0d470	0.0073495433
191	0x3cbc70c7	0.023002995
192	0xbd9f3f76	-0.07775776
193	0xbd0e3f83	-0.03472854
194	0xbd421095	-0.047379095
195	0xbc6bab64	-0.014384124
196	0x3b858c4a	0.0040755617
197	0x3d13a13c	0.036042437
198	0xbd232ad4	-0.039835766
199	0x3b192792	0.0023369533
200	0x3b8cece6	0.0043007014
201	0xbc02b5be	-0.007977901
202	0x3c688038	0.014190726
203	0x3ca1bd16	0.019743484
204	0xbd1c59d6	-0.03817161
205	0x3c431c65	0.011908625
206	0x3cca3ecd	0.024688149
207	0x3d0a4384	0.033755794
208	0x3cf140d2	0.029449854
209	0xbc82cba0	-0.015966237
210	0xbb893f1f	-0.004188433
211	0xbd263609	-0.040578876
212	0x3cc6c9f5	0.024266222
213	0x3c266017	0.010154746
214	0x3b97dbc9	0.0046343547
215	0xbcadd9f4	-0.021222092
216	0xbd056d32	-0.03257484
217	0xbbf129eb	-0.0073597333
218	0x3b99b06d	0.004690221
219	0xbcf3dacd	-0.029767418
220	0xbba15382	-0.004923285
221	0x3c452af4	0.012034167
222	0xba7993c4	-0.0009520615
223	0xbc4d6ce9	-0.012538173
224	0xbc71691e	-0.014734535
225	0xbc294b39	-0.010332876
226	0x3bb6f987	0.005583945
227	0xbd1cb410	-0.03825766
228	0x3cf717e5	0.030162761
229	0x3c0f8e81	0.008762003
230	0xb8f28ae2	-0.00011565328
231	0x3d32767e	0.043570034
232	0x3ccc6625	0.02495105
233	0x3d0fb70c	0.035086676
234	0x3d070cd5	0.032971222
235	0x3a4c43f1	0.00077921065
236	0x3c453201	0.012035848
237	0xbba5d6e5	-0.005061018
238	0xbbc43175	-0.005987341
239	0xbcc4be27	-0.024016453
240	0xbd07c21c	-0.0331441
241	0xbcd14362	-0.025544826
242	0xbd12e1c9	-0.035859857
243	0xbbaea669	-0.005329896
244	0x3c98e4d0	0.018663794
245	0x3d1a6102	0.03769017
246	0x3854a14c	5.069496e-05
247	0x3cc1641e	0.02360731
248	0xbc4b7b6f	-0.012419566
249	0xbd52f9f3	-0.0515079
250	0x3c6c73b6	0.0144318845
251	0xbcf02dbd	-0.029318685
252	0xbb9430b8	-0.0045224093
253	0x3bbe0650	0.0057990924
254	0xbcae4596	-0.021273416
255	0xbacacfcb	-0.0015473304

classifier.bias f4 [4]
0	0xbb1e421b	-0.0024148289
1	0x3bf470cd	0.007459736
2	0xbb6d78b0	-0.0036235265
3	0xbb4cb679	-0.0031236692
