mBERT/adapters/person_adapter/pytorch_model_head.bin (torch_old, 12786 bytes, 2 tensors)

classifier.weight f4 [4, 768]
000000 9d dd bb 3c c7 5a 24 3d 42 42 c4 3a c8 e8 b2 3c
       0.022932822 0.040125635 0.001497336 0.021839514
000010 98 86 6e bc 24 cb 83 3c 2e 10 21 3b 87 a3 f0 3c
       -0.014558457 0.016088076 0.0024576294 0.02937485
000020 27 7d 40 3c bf fe d0 bc 83 23 7e 3c 48 17 23 ba
       0.011748589 -0.025512097 0.015511396 -0.0006221426
000030 f5 87 14 bc 32 9c da 3c 5c d3 31 bc a9 f4 72 3b
       -0.009065618 0.026685808 -0.010853615 0.0037072098
000040 16 62 8a bb db 16 b7 bb af e3 4c bc d4 d3 b3 3c
       -0.0042231185 -0.0055874414 -0.012505456 0.021951593
000050 3f 27 0a bd f1 f6 60 bb eb c0 bd 3b 77 2e 00 bb
       -0.033728834 -0.0034326876 0.00579082 -0.0019558945
000060 fe ac 48 bc 57 10 58 3b 0a 74 3e bc c3 04 21 bd
       -0.012248276 0.0032968724 -0.011624346 -0.03931118
000070 72 8b 9c bc d9 30 bd 3c 8f 8b f8 3c cf 2a 42 bc
       -0.019109461 0.023094581 0.030339984 -0.011851027
000080 63 11 0e bd e5 4b cb 3a 87 93 07 3c 49 d3 e9 bc
       -0.03468455 0.0015510289 0.008274919 -0.028543131
000090 ad 6a 70 3b 69 f0 48 3d 4b b7 14 bd 9f bd 3e 3c
       0.0036684677 0.049057398 -0.036307614 0.011641889
0000a0 e9 eb f0 bc 66 f0 55 b5 ff da 84 3c ff 33 2d bd
       -0.029409366 -7.969851e-07 0.016217707 -0.042285915
0000b0 96 6d a6 3b 7e 00 5a bc 9d e7 8a bc 74 cd 81 3c
       0.0050789816 -0.013305781 -0.016956145 0.015845038
0000c0 61 f9 5f 3c 95 63 e8 bc 16 7d 78 3c dc 0c da bc
       0.013670296 -0.028367797 0.015166542 -0.02661746
0000d0 44 7e 00 3c cb 6f 1e bd 4a 7e 25 3c 19 bf 0b bd
       0.007842604 -0.038680833 0.01010091 -0.03411779
0000e0 a7 2b 90 bb 4c 0f f2 bc 57 6c 8d ba 1b a1 3e 3c
       -0.004399735 -0.02954831 -0.0010789734 0.01163509
0000f0 20 b1 2e bd 32 c2 4b bc 3a cb a4 3c 82 f6 66 bc
       -0.04264939 -0.0124364365 0.020116437 -0.014096858
000100 95 18 50 3c 67 a6 3e bc 89 80 1b bc 25 19 98 3b
       0.012701173 -0.011636353 -0.009491094 0.0046416693
000110 ed ea fd bc 29 c3 f8 ba d4 24 6d bc a6 dc fa 3c
       -0.03099581 -0.0018979061 -0.014474113 0.030622791
000120 f6 dc 1d bc 68 00 64 bc dc 7d 89 3b 98 d3 e9 bb
       -0.009635201 -0.0139161125 0.004195912 -0.0071358196
000130 4c 8c b3 3c 9c 37 88 bb f1 42 c2 3b a3 31 5b 3c
       0.021917485 -0.00415702 0.00592839 0.013378534
000140 74 e8 eb bc 06 c8 dc bb 75 47 39 bc ae 16 9e bb
       -0.028797366 -0.006737712 -0.011308541 -0.004824481
000150 9e 3d 3a bd c4 40 97 3c 60 07 bb 3c c4 64 af bc
       -0.04546892 0.0184635 0.022830665 -0.021410353
000160 7a 0a d0 bc 23 ea e5 bc 1f b3 4c 3b 1d 07 df bc
       -0.02539562 -0.028065747 0.0031234694 -0.027225072
000170 49 a6 45 3c 1b cb b7 bb b8 14 87 bc 9c e7 b9 3b
       0.012063571 -0.005608929 -0.016489372 0.005673362
000180 00 af 59 3c a3 26 7e 3c cc ee 1e bd bb b9 54 3c
       0.013286352 0.015512141 -0.038801953 0.012983735
000190 78 5c 96 3b dc 85 10 bd 4b d9 7c bc 3d 4b 7a bc
       0.00458866 -0.03528391 -0.015432666 -0.015276727
0001a0 3a c2 9a 3c bf c8 91 3b 7b 1c 17 3c 33 17 34 bb
       0.018891443 0.0044489796 0.009223099 -0.0027479648
0001b0 6c c3 6a 3a 6f b6 a5 3b 2f f4 64 bd 3f 94 e0 bc
       0.0008955512 0.005057148 -0.055896934 -0.02741444
0001c0 f9 30 4b bc e2 b3 7b 3a 94 d1 6d 3b 1b 76 65 bd
       -0.012401813 0.0009601695 0.0036288248 -0.056020837
0001d0 cd 47 c9 bb ab 99 33 3c 4b 01 a3 3c 57 36 34 bd
       -0.0061425925 0.01096193 0.019898077 -0.043997135
0001e0 bb 10 19 3c a0 09 51 3c 7b 0b 30 3c 36 ea 9e bb
       0.009342368 0.012758642 0.010744925 -0.0048496975
0001f0 81 23 cf ba cd 3d f0 3c e9 2c e7 3c e2 54 a5 3c
       -0.0015803428 0.029326344 0.028219657 0.020182077
000200 b2 78 95 ba 49 70 11 bd 5d 1a 0c bd 05 ed 34 3d
       -0.0011403768 -0.035507474 -0.03420483 0.044171352
000210 ac 66 59 3c f1 7d 0b bd 8a 7f 3d 3c 9e 81 e3 bc
       0.013269108 -0.034055654 0.011566052 -0.027771767
000220 d1 b3 8c bc 69 1e cf 3c 99 60 c6 ba 60 bb ee bc
       -0.017175587 0.025283055 -0.001513499 -0.029142082
000230 ce 34 8a b8 23 29 ba 3c 2c 71 02 bd 4b 65 a1 3c
       -6.5901884e-05 0.022724694 -0.03184621 0.01970162
000240 8a 20 15 3a 0a 2a 9a bc 39 db ee bb e6 57 3f bc
       0.00056887476 -0.018818874 -0.007289317 -0.011678671
000250 1e e5 8c 3c 97 15 0d 3d 0f 2c 85 3c b8 00 12 bc
       0.017199095 0.034444418 0.01625636 -0.008911304
000260 6b b5 17 bb cb a9 d1 bc 6a 29 b5 bb 44 ee 16 bc
       -0.0023148905 -0.025593659 -0.0055286186 -0.00921208
000270 cd 0d f1 bb 32 1b 0f 3c c7 05 66 3b 7d c0 93 bb
       -0.0073563815 0.008734511 0.0035098658 -0.0045090304
000280 8d 43 1e 3d 93 dc 62 bd 62 d3 9f bc fb cb 39 3d
       0.03863864 -0.055386137 -0.019509975 0.045360547
000290 3d b8 fe 3c 1f cb 03 3d ab bf 63 bc bf 77 45 3c
       0.031093711 0.032176133 -0.013900678 0.0120524755
0002a0 2c 8d 4a bc 75 b6 a7 3a 35 ba 87 3c 4c c6 a1 bc
       -0.01236276 0.0012795465 0.016568283 -0.019747876
0002b0 0a 97 cd 3c e8 97 d1 bc 5f b1 54 3d f1 84 ba 3c
       0.025096435 -0.02558513 0.051926967 0.02276847
0002c0 76 81 8c 3c c0 40 f0 3a c8 c1 97 3b 6b 19 8e 3a
       0.017151576 0.0018329844 0.004631255 0.0010841315
0002d0 7f 51 69 bc 68 98 32 bc 1a 6e c0 3c 50 74 16 3c
       -0.014240622 -0.010900594 0.02349 0.0091830045
0002e0 76 54 26 bd ab 5f 29 3c c4 4c a2 3c 82 f3 f6 3c
       -0.040607892 0.01033775 0.019811995 0.03014541
0002f0 f5 4b 0b 3d f1 b1 b4 3b e3 8b da 3b c7 5b 6e 3c
       0.034007985 0.0055143763 0.006669508 0.014548249
000300 c7 70 90 bd 3a fe f3 bc ff 53 dd bc eb 14 93 bc
       -0.070527606 -0.02978431 -0.027017592 -0.01795431
000310 bb 7e 14 bc f5 0a b4 3c 90 80 2c bd 34 b6 12 3c
       -0.009063418 0.021977881 -0.042114794 0.008954573
000320 09 9b d7 3b f2 01 d2 bc 24 05 75 3c f2 05 e3 3c
       0.006579761 -0.025635693 0.014954839 0.027712796
000330 0c 5e 0d bd 28 4b 86 3c 43 2c 08 3d f5 65 16 3d
       -0.03451352 0.01639326 0.033245336 0.036718328
000340 aa 32 09 3d 11 59 56 bc 8c 12 b8 3c 00 d0 14 bd
       0.033495583 -0.0130827585 0.022469781 -0.036331177
000350 62 11 4b 3c dd 7a 04 bc 55 ae ab 3b 4d d4 c3 bc
       0.012394281 -0.0080859335 0.005239288 -0.023904944
000360 82 e5 33 bd 5a 8b 4f bc e1 b1 ac bb 40 f0 08 bd
       -0.043920048 -0.012667501 -0.0052702283 -0.033432245
000370 e1 7e ab bb 29 4a f6 bb 88 10 81 bc 40 42 c1 bc
       -0.005233631 -0.007516165 -0.015754953 -0.02359116
000380 2b 03 f4 bb b9 01 bf bc 40 6e 01 3b ab d8 25 bd
       -0.0074466667 -0.023316251 0.0019749552 -0.040489834
000390 a8 d4 f3 3c 33 42 a4 3c c2 4d 35 3c d3 35 07 3d
       0.029764488 0.020051097 0.011065902 0.033010315
0003a0 2f 7c 16 3d 86 ab 35 3d 6d 5f 77 3c 6b 6e 81 3c
       0.036739524 0.04435303 0.015098435 0.015799722
0003b0 af b2 cc 3b 79 9c 6c 3b 1c dd 88 39 c7 cb c4 bc
       0.0062468867 0.0036104007 0.0002610468 -0.02402295
0003c0 f3 de 14 bd 42 e6 73 bc a1 8e 46 bd 23 d5 f0 bb
       -0.036345433 -0.014886441 -0.048475865 -0.0073496266
0003d0 3e d0 a4 3c e2 ef fe 3c 36 f2 13 bc 6d 1d 69 3c
       0.020118829 0.031120244 -0.009029916 0.014228207
0003e0 0e 77 b3 bb 92 67 30 bd ac 5b 61 3c e3 de 0d bd
       -0.005476839 -0.043067522 0.013754766 -0.03463639
0003f0 34 d4 be 3a 1d 33 45 3c c5 c4 7e bb 29 d4 17 bc
       0.0014559091 0.012036112 -0.0038874608 -0.0092668915

classifier.bias f4 [4]
000000 d7 19 89 bb 69 3f 29 bb e9 60 5e 3b 20 35 0f ba
       -0.0041839886 -0.002582515 0.0033932275 -0.00054629333
