mBERT/adapters/case_adapter/pytorch_model_head.bin (torch_old, 22014 bytes, 2 tensors)

classifier.weight f4 [7, 768]
0	0x3d5820c2	0.052765615
1	0x3b5e8cf5	0.0033958529
2	0xbc977735	-0.01848946
3	0xbd053792	-0.0325237
4	0xbb92613b	-0.004467157
5	0xbbc535a9	-0.0060183597
6	0x3cab93d4	0.020944513
7	0xbbaa0932	-0.0051890844
8	0xbb220f35	-0.0024728302
9	0xbcefa454	-0.029253162
10	0xbcb1666b	-0.021655282
11	0xbcc3f661	-0.023921194
12	0xbd31a64e	-0.04337149
13	0x3c601739	0.013677412
14	0x3d064bdc	0.03278719
15	0xbc091ee6	-0.008369183
16	0xbc65fa3b	-0.01403671
17	0x3c3e379e	0.01160994
18	0x3c0e687f	0.008691906
19	0xbd1511e5	-0.03639402
20	0xbd4e3e52	-0.050352402
21	0x3be0890a	0.006852274
22	0xbc90e334	-0.017686464
23	0x3c8bd389	0.017068641
24	0x3cef5c33	0.029218769
25	0xbcb6e0bb	-0.022323957
26	0x3be24a69	0.006905843
27	0x3c7d71d0	0.01546903
28	0x3c83b27a	0.016076315
29	0x3b580300	0.0032960773
30	0x3c15804f	0.009124829
31	0x3c6f1015	0.014591237
32	0xbcb635d4	-0.022242464
33	0x3b92f3b7	0.0044846195
34	0x3c5bd4e8	0.01341746
35	0xbd0430a4	-0.03227295
36	0x3c9f2d42	0.01943076
37	0xbbf73b2b	-0.007544895
38	0xbad30b2c	-0.0016101352
39	0xbc819197	-0.015816493
40	0x3c39f7d0	0.011350587
41	0x3bd0d150	0.0063726082
42	0x3cdaa464	0.026689716
43	0x3c8ef858	0.017452404
44	0x3c972d43	0.0184542
45	0xbcb60027	-0.02221687
46	0x3cc5ac68	0.024130061
47	0x3bc827c7	0.0061082575
48	0xbcbf159e	-0.023325738
49	0x3baa1da4	0.0051915217
50	0xbb2177c2	-0.0024638032
51	0x3bd6639d	0.0065426365
52	0xb93a6063	-0.00017774249
53	0xbab78dca	-0.0014004048
54	0x3cbcc3ee	0.023042645
55	0x3c1f7528	0.009732522
56	0xbce0c5bc	-0.027438037
57	0x3c63f7ba	0.013914043
58	0xbc843cb5	-0.016142229
59	0xbd427d62	-0.047482856
60	0xbc80c5ed	-0.015719378
61	0x3c3d0224	0.011536155
62	0xbc5e7cd7	-0.013579569
63	0x3bf237d9	0.0073919115
64	0xb9b2adf2	-0.00034080405
65	0xbd4ad608	-0.049520522
66	0xbb897ef6	-0.004196043
67	0xbca8dfc6	-0.020614516
68	0x3cd30862	0.025760833
69	0xbcf5bd26	-0.02999742
70	0x3ca35af8	0.019940838
71	0xbcbb7fdd	-0.022888118
72	0x3beb612e	0.0071832156
73	0xbd189d34	-0.037259296
74	0x3c31af6b	0.010845046
75	0x3c31f9e1	0.010862798
76	0x3d5b06b6	0.053473197
77	0x3c97d01d	0.018531853
78	0xbcd4ac36	-0.025961023
79	0xbd0b2514	-0.033970907
80	0xbc48fd74	-0.012267459
81	0xbb2fdac9	-0.0026833287
82	0x3d48e439	0.049045775
83	0xbd0cd242	-0.034380205
84	0x3d0ea41e	0.034824483
85	0x3c78b5bf	0.01518005
86	0x3c3ae11f	0.011406212
87	0xbb0695a7	-0.0020535977
88	0x3c708bf3	0.014681804
89	0x39f868aa	0.00047380227
90	0x3d2a5362	0.041583426
91	0x3d25af7b	0.040450554
92	0xbccf691a	-0.025318671
93	0xbcbed6b6	-0.023295742
94	0xbd27818d	-0.040895034
95	0x3cc8231e	0.024430808
96	0xbd37aabc	-0.04484056
97	0xbb62415e	-0.0034523825
98	0xbccbe2ba	-0.024888385
99	0x3d06c242	0.032900102
100	0x3c76ae99	0.015056276
101	0xbcb731f0	-0.02236268
102	0xbd167edd	-0.03674208
103	0x3d63b191	0.055589262
104	0x3b5524d0	0.0032523163
105	0xbc42975c	-0.011876907
106	0xbd488cf7	-0.04896256
107	0xbcb72944	-0.022358544
108	0xbc609d87	-0.013709432
109	0x3b5ead66	0.0033977865
110	0x3ca73cbd	0.020414704
111	0xbc2f1f13	-0.010688561
112	0x3c708614	0.014680404
113	0x3c3e300d	0.011608136
114	0x3c3fe1a4	0.011711512
115	0xbc8656a9	-0.016398745
116	0xbcbc433b	-0.022981277
117	0x3cd2d64e	0.025736954
118	0x38fd7834	0.0001208637
119	0xbcf4fc8e	-0.029905584
120	0x3d02f3c7	0.031970765
121	0xbc863de6	-0.016386937
122	0x3c3bc74d	0.011461091
123	0x3c2a3a84	0.010389928
124	0x3cede838	0.029041395
125	0xbd4784a9	-0.0487105
126	0x3b5c55b7	0.0033620426
127	0x3d68fed0	0.056883633
128	0x3cfcb36b	0.030847272
129	0xbb03cdd1	-0.002011169
130	0xbc678092	-0.014129775
131	0x3c56c1d0	0.013107732
132	0xbd027414	-0.031848982
133	0xbc4a1bd6	-0.012335738
134	0x3cb2c235	0.02182112
135	0xbcdde765	-0.027087877
136	0x3ce05b4d	0.027387286
137	0x3bf20159	0.0073854146
138	0x3d03cdae	0.032178573
139	0x3bbe5feb	0.005809774
140	0x3c7e486a	0.015520195
141	0x3b56c921	0.003277369
142	0x3c02f8ad	0.007993859
143	0x3bf2aae1	0.0074056243
144	0xbc30b4a7	-0.010785258
145	0x3c8474a9	0.01616891
146	0xbc514e59	-0.012775027
147	0xbc5931e9	-0.013256528
148	0x3d061560	0.03273523
149	0xbc8bef30	-0.017081827
150	0x3cfe3575	0.03103135
151	0x3c0a7e91	0.008453027
152	0x3a1eb1ed	0.00060537347
153	0x3d1bc86c	0.038032934
154	0x3d08edec	0.033430025
155	0xbd8a0269	-0.06738741
156	0x3c020d22	0.007937701
157	0xbd0163cf	-0.031589326
158	0xbae04d97	-0.0017112967
159	0xbc8bdbd5	-0.017072598
160	0xba56a2ea	-0.0008187728
161	0x3c8b8d83	0.017035251
162	0xbcc2e59d	-0.023791129
163	0xbc68ed2f	-0.014216705
164	0x3c843395	0.016137877
165	0xbc8ff70e	-0.01757386
166	0xbd0ea391	-0.034823958
167	0xbc3aec6f	-0.011408909
168	0x3d15b8d4	0.03655322
169	0x3c65e11e	0.014030723
170	0xb8ff2adb	-0.0001216733
171	0xbced1ded	-0.028944934
172	0xbb32bc8b	-0.0027273025
173	0x3c050a7a	0.008120174
174	0x3ca9c917	0.02072577
175	0x3af9ccbb	0.0019058207
176	0xbc61cb1d	-0.013781336
177	0xbbe77384	-0.007063331
178	0x3d558557	0.052129116
179	0xbc221e22	-0.00989488
180	0x3cf38db0	0.029730648
181	0xbc1d67f2	-0.009607302
182	0x3cace392	0.021104608
183	0xbd0b3044	-0.033981577
184	0x3cd666d9	0.026172088
185	0xbd343651	-0.043997113
186	0x3d0f1304	0.034930244
187	0x3a837d7f	0.0010031908
188	0x3ce13430	0.027490705
189	0x3d82681c	0.063675135
190	0xbcbc92e7	-0.023019267
191	0x3cf28709	0.029605405
192	0x3d0ea45d	0.034824718
193	0x3d67edbe	0.056623213
194	0xbd050e00	-0.032484055
195	0x3cd30935	0.025761226
196	0x3cfe4ff4	0.031043984
197	0xbb885d83	-0.004161538
198	0xbcfa49b4	-0.030552723
199	0x3c3a3576	0.011365285
200	0x3a45139c	0.00075178756
201	0xbb7ac517	-0.0038264447
202	0x3c96de56	0.018416565
203	0x3cb112ae	0.021615352
204	0x3d89126b	0.06692966
205	0xbb23a660	-0.0024970993
206	0xbd3545c6	-0.044255994
207	0xbcc9ea97	-0.024647994
208	0xbc88aadd	-0.016683036
209	0xbc677450	-0.014126852
210	0xbc24b9c2	-0.010054054
211	0x3cf86ee4	0.030326314
212	0xbb57abbd	-0.003290876
213	0x3b16a8e9	0.0022988862
214	0xbc62ca3d	-0.013842163
215	0x3d0105ae	0.031499557
216	0x3cc6d123	0.024269646
217	0xbc9299c0	-0.01789558
218	0xbd0354d5	-0.032063324
219	0xb99a28e6	-0.0002940364
220	0x3ba34ebc	0.004983751
221	0x3c65ca05	0.014025216
222	0xbd5135c8	-0.05107668
223	0xb9f594bc	-0.00046840857
224	0xbd395789	-0.045249496
225	0x3cc9efaa	0.024650414
226	0x3c804d5b	0.015661886
227	0xbca20e75	-0.019782284
228	0xbc0d1dfc	-0.008613106
229	0x3d612167	0.054963496
230	0xbce29eb4	-0.027663566
231	0xbd2e3c70	-0.042538106
232	0xbb96b7ba	-0.0045995386
233	0xbc6cabbe	-0.014445243
234	0xbd57d5c8	-0.052694112
235	0x3c8779da	0.016537596
236	0x3c829d33	0.015944099
237	0xbb199ab4	-0.0023438158
238	0xbcbca404	-0.023027427
239	0x3d0d4e7a	0.03449867
240	0x3d1eac1c	0.038738355
241	0xbcb95eff	-0.022628305
242	0x3d23ca37	0.03998777
243	0xbc9da407	-0.019243253
244	0x3b91e5cc	0.0044524428
245	0xbbaec0bb	-0.005333034
246	0xbc85e262	-0.0163433
247	0xbd47a304	-0.04873945
248	0xbcc8e5af	-0.024523584
249	0xbc16ae4b	-0.009196828
250	0xbc9dd3ac	-0.019265972
251	0x3cd31d54	0.02577082
252	0xbc673e42	-0.0141139645
253	0x3caab66d	0.02083894
254	0xbcf4a8fb	-0.029865732
255	0x3c76fbc9	0.015074679

classifier.bias f4 [7]
0	0x3b855d7a	0.004069981
1	0xbc2f1077	-0.010685078
2	0x3a2c44a4	0.00065715075
3	0xbc5583cc	-0.013031911
4	0xbbcc47f0	-0.0062341616
5	0x3bb9bf83	0.005668582
6	0x3b54e81c	0.003248698
