mBERT/adapters/pos_adapter/pytorch_model_head.bin (torch_old, 52774 bytes, 2 tensors)

classifier.weight f4 [17, 768]
-0.007822524 0.052472137 -0.10167389 0.10478179 0.0032571082 -0.014025706 0.096732594 -0.019555505
-0.06451066 -0.060935713 0.03401175 -0.060779613 -0.036777858 -0.027431289 -0.009257101 -0.20643143
-0.058189265 0.029038131 -0.02343896 0.030584114 0.13649476 0.04601206 0.04049031 -0.015164403
-0.14107746 -0.034162592 0.07371908 -0.04587612 0.028939074 0.09313211 -0.0032088123 -0.03469447
-0.0033440467 0.03187444 0.090608746 0.0145835085 0.03436529 -0.0247042 -0.050096728 0.18419771
0.02504591 0.03216119 0.16047405 0.06921954 0.03214805 0.04147084 -0.04562168 0.023040634
0.12141942 -0.009821048 -0.052954886 0.06732926 0.052593898 -0.0027111873 0.12580211 0.041408807
-0.048190866 -0.06590305 0.05364438 0.057331853 0.061260194 0.008102125 -0.12680316 -0.015710354
0.10109918 -0.18136825 0.08264518 0.0813736 -0.012456849 -0.08141367 -0.04662466 0.008104867
-0.0073995874 -0.0064036977 0.11523912 -0.017535493 -0.06501251 0.054436367 0.073784016 0.14663121
0.05972197 -0.029174266 0.038416732 0.042315815 -0.0052300575 -0.10640513 -0.038838934 0.001684153
0.0013930672 0.030050926 0.15651938 0.064918205 -0.058241453 -0.006726312 0.070563935 -0.10401368
0.02275321 0.045909423 0.011946948 -0.022581685 0.061692204 0.051956873 -0.10363251 0.018320555
-0.010270475 0.03500856 0.033153135 -0.0148957055 0.07536089 -0.029560281 0.003749427 0.1229381
-0.0005281755 0.07612525 0.0019535327 0.07820645 -0.0026489757 -0.0036179805 -0.0784079 -0.02796708
-0.045194063 -0.066910654 -0.028931294 0.048765462 0.026894119 0.06773671 -0.045741048 0.033576585
-0.08092402 0.09295757 -0.057281453 0.053117216 0.012389647 -0.057035502 -0.16141148 0.07183189
0.02048236 -0.006716066 0.07940875 -0.042426895 0.11444423 -0.12384451 0.04020871 0.03072306
0.11527556 -0.022405814 0.056447364 -0.06595601 0.09399394 -0.06464551 0.0002419733 -0.035933327
-0.03822023 0.15507211 -0.06497023 0.01255672 -0.012670112 0.036580328 0.008354843 -0.08460022
0.027468458 -0.036943648 0.10478939 -0.00534569 0.082450986 0.05612256 -0.0684876 0.047485936
0.07682961 0.028255202 -0.0033195282 0.07108717 0.038161334 -0.060418013 0.041428775 0.1422005
0.0073870663 -0.021714339 0.097514465 0.08092906 0.07937096 -0.113306984 -0.038464636 -0.11350901
-0.018694064 0.032212313 -0.084794395 -0.060038798 0.15555471 0.034441136 -0.10126693 0.03069343
0.08366854 0.024313841 -0.06755973 -0.015219491 0.06532356 -0.07148068 -0.07182519 0.0025104522
0.06270563 0.005184061 0.037916977 0.0035084712 -0.037339255 -0.09067578 -0.0887943 0.055928506
0.0997872 -0.113200836 0.095878325 -0.04322551 0.10740443 0.028768543 -0.033341017 0.032294057
0.020342847 0.059966464 -0.051769424 -0.013077286 -0.02350104 0.070607245 0.018888993 0.06726203
0.06640963 -0.069162786 0.028862378 -0.19948447 0.014892342 0.07850285 0.04743967 0.02053122
0.14534314 -0.071865276 0.039120782 -0.05111423 -0.055928085 0.05959648 0.044401865 0.037558902
0.01585929 -0.0027449746 -0.07876232 0.020473532 -0.18212661 0.06511107 0.14913526 0.024825312
0.113678634 0.002867729 -0.0036558965 0.07708134 -0.16690584 0.06939826 -0.026428597 -0.08235563
00000000: 0b2a 00bc 06ed 563d 673a d0bd d697 d63d
00000010: 3575 553b 13cc 65bc bd1b c63d de32 a0bc
00000020: 2a1e 84bd ba97 79bd e84f 0b3d 0bf4 78bd
00000030: 61a4 16bd 95b7 e0bc 19ab 17bc c362 53be
00000040: de57 6ebd 60e1 ed3c 1003 c0bc 898b fa3c
00000050: 48c5 0b3e 2477 3c3d 2bd9 253d 1e74 78bc
00000060: 9c76 10be 13ee 0bbd 07fa 963d 99e8 3bbd
00000070: a311 ed3c 0cbc be3d f04a 52bb ca1b 0ebd
00000080: cb27 5bbb c68e 023d 1491 b93d abef 6e3c
00000090: 9ec2 0c3d 7660 cabc 3a32 4dbd 539e 3c3e
000000a0: 152d cd3c 74bb 033d 4f53 243e f9c2 8d3d
000000b0: acad 033d 54dd 293d ccdd 3abd b6bf bc3c
000000c0: bfaa f83d 76e8 20bc 39e7 58bd ece3 893d
000000d0: b36c 573d 2dae 31bb 45d2 003e 489c 293d
000000e0: c963 45bd 2ef8 86bd 36ba 5b3d ced4 6a3d
000000f0: f8eb 7a3d c6be 043c b0d8 01be 00b3 80bc
00000100: 160d cf3d 99b8 39be e041 a93d 34a7 a63d
00000110: d017 4cbc 36bc a6bd 80f9 3ebd 47ca 043c
00000120: 3d78 f2bb 1cd6 d1bb 7d02 ec3d 98a6 8fbc
00000130: 4725 85bd abf8 5e3d 131c 973d 7e26 163e
00000140: 069f 743d dffe eebc dd5a 1d3d 5953 2d3d
00000150: e760 abbb efea d9bd 9315 1fbd ccbe dc3a
00000160: 9497 b63a 5c2d f63c 9e46 203e d6f3 843d
00000170: 978e 6ebd 6568 dcbb d383 903d 2005 d5bd
00000180: f164 ba3c 850b 3c3d 22bd 433c 3afd b8bc
00000190: f7b0 7c3d bbd0 543d 483d d4bd fd14 963c
000001a0: 7f45 28bc 2365 0f3d 95cb 073d 1e0d 74bc
000001b0: cf56 9a3d 6728 f2bc f2b8 753b f8c6 fb3d
000001c0: 4275 0aba 8ee7 9b3d d706 003b b42a a03d
000001d0: 709a 2dbb a41b 6dbb 5294 a0bd 381b e5bc
000001e0: 691d 39bd 7408 89bd 5201 edbc 4bbe 473d
000001f0: 0e51 dc3c 8bb9 8a3d f75a 3bbd 9a87 093d
00000200: 7ebb a5bd 8a60 be3d f59f 6abd 7091 593d
00000210: f2fd 4a3c 0f9e 69bd 0d49 25be 991c 933d
00000220: 9fca a73c 7212 dcbb 0ea1 a23d d3c7 2dbd
00000230: bd61 ea3d 31a2 fdbd e3b1 243d edae fb3c
00000240: 9815 ec3d 668c b7bc 5a35 673d f213 87bd
00000250: e57f c03d dd64 84bd 37ba 7d39 d32e 13bd
00000260: d18c 1cbd 39cb 1e3e 1d0f 85bd b3ba 4d3c
00000270: 4d96 4fbc 41d5 153d c0e2 083c e142 adbd
00000280: 8805 e13c 3952 17bd d29b d63d e62a afbb
00000290: 10dc a83d c5e0 653d 3a43 8cbd 9d80 423d
000002a0: d858 9d3d 7477 e73c 718c 59bb 2696 913d
000002b0: 0f4f 1c3d e178 77bd 38b1 293d 029d 113e
000002c0: 340f f23b 45e2 b1bc aab5 c73d 23be a53d
000002d0: 3e8d a23d 7e0d e8bd 188d 1dbd 6977 e8bd
000002e0: 4b24 99bc 0ff1 033d afa8 adbd 3eeb 75bd
000002f0: bc49 1f3e 2612 0d3d 0965 cfbd ca70 fb3c
00000300: 695a ab3d d22d c73c c15c 8abd 2c5b 79bc
00000310: 5cc8 853d 7664 92bd 1619 93bd 6686 243b
00000320: cf6b 803d 0edf a93b d54e 1b3d 61ee 653b
00000330: 0cf1 18bd 39b4 b9bd c9d9 b5bd 4a15 653d
00000340: 3b5d cc3d d7d5 e7bd db5b c43d 3b0d 31bd
00000350: dbf6 db3d 02ac eb3c 9790 08bd c646 043d
00000360: 0ba6 a63c 659f 753d 2d0c 54bd 1d42 56bc
00000370: 4185 c0bc 889a 903d 17bd 9a3c adc0 893d
00000380: c601 883d 38a5 8dbd cb70 ec3c a845 4cbe
00000390: 02ff 733c 1ac6 a03d 1950 423d 1731 a83c
000003a0: d5d4 143e 1a2e 93bd 1d3d 203d 285d 51bd
000003b0: d914 65bd 701b 743d bbde 353d 5dd7 193d
000003c0: 57eb 813c 08e5 33bb 244e a1bd 1cb8 a73c
000003d0: 667f 3abe f458 853d eab6 183e 745e cb3c
000003e0: 58d0 e83d 82f0 3b3b c497 6fbb d2dc 9d3d
000003f0: 5de9 2abe ad20 8e3d c980 d8bc 12aa a8bd

classifier.bias f4 [17]
-0.15123998 0.0044766916 -0.012372389 0.010985039 -0.0054390635 -0.009577871 2.1814265e-05 -0.018815717
0.012688444 -0.013696649 0.00039018886 -0.005629058 0.0071798177 -0.038852867 -0.010664237 0.005327744
0.0038973966
00000000: a7de 1abe 36b1 923b 90b5 4abc 98fa 333c
00000010: 2c3a b2bb 81ec 1cbc c7fd b637 6b23 9abc
00000020: 31e3 4f3c e967 60bc 4392 cc39 f673 b8bb
00000030: ad44 eb3b 2f24 1fbd 0db9 2ebc 5b94 ae3b
00000040: 776b 7f3b
